…
name: GeForce GTX 1070 major: 6 minor: 1 memoryClockRate(GHz): 1.835
pciBusID: 0000:01:00.0
totalMemory: 8.00GiB freeMemory: 6.63GiB
2018-04-22 23:53:24.502269: I C:\tf_jenkins\workspace\rel-win\M\windows-gpu\PY\35\tensorflow\core\common_runtime\gpu\gpu_device.cc:1195] Creating TensorFlow device (/device:GPU:0) -> (device: 0, name: GeForce GTX 1070, pci bus id: 0000:01:00.0, compute capability: 6.1)
_________________________________________________________________
Layer (type)                 Output Shape              Param #
=================================================================
cropping2d_1 (Cropping2D)    (None, 75, 320, 3)        0
_________________________________________________________________
lambda_1 (Lambda)            (None, 75, 320, 3)        0
_________________________________________________________________
conv2d_1 (Conv2D)            (None, 36, 79, 24)        1824
_________________________________________________________________
batch_normalization_1 (Batch (None, 36, 79, 24)        96
_________________________________________________________________
relu_1 (Activation)          (None, 36, 79, 24)        0
_________________________________________________________________
pool_1 (MaxPooling2D)        (None, 17, 39, 24)        0
_________________________________________________________________
conv2d_2 (Conv2D)            (None, 17, 39, 32)        6944
_________________________________________________________________
batch_normalization_2 (Batch (None, 17, 39, 32)        128
_________________________________________________________________
relu_2 (Activation)          (None, 17, 39, 32)        0
_________________________________________________________________
pool_2 (MaxPooling2D)        (None, 8, 19, 32)         0
_________________________________________________________________
conv2d_3 (Conv2D)            (None, 8, 19, 48)         13872
_________________________________________________________________
batch_normalization_3 (Batch (None, 8, 19, 48)         192
_________________________________________________________________
relu_3 (Activation)          (None, 8, 19, 48)         0
_________________________________________________________________
pool_3 (MaxPooling2D)        (None, 3, 9, 48)          0
_________________________________________________________________
conv2d_4 (Conv2D)            (None, 1, 1, 64)          83008
_________________________________________________________________
batch_normalization_4 (Batch (None, 1, 1, 64)          256
_________________________________________________________________
relu_4 (Activation)          (None, 1, 1, 64)          0
_________________________________________________________________
dropout_4 (Dropout)          (None, 1, 1, 64)          0
_________________________________________________________________
conv2d_5 (Conv2D)            (None, 1, 1, 16)          1040
_________________________________________________________________
batch_normalization_5 (Batch (None, 1, 1, 16)          64
_________________________________________________________________
relu_6 (Activation)          (None, 1, 1, 16)          0
_________________________________________________________________
conv2d_6 (Conv2D)            (None, 1, 1, 1)           17
_________________________________________________________________
reshape_1 (Reshape)          (None, 1)                 0
=================================================================
Total params: 107,441
Trainable params: 107,073
Non-trainable params: 368
_________________________________________________________________
Epoch 1/100

Epoch 00001: LearningRateScheduler reducing learning rate to 0.01.
100/100 [==============================] - 215s 2s/step - loss: 2.4488 - val_loss: 0.5591
Epoch 2/100

Epoch 00002: LearningRateScheduler reducing learning rate to 0.01.
…
